DataBase/Task.pth (torch, 2775 bytes, 6 tensors)

l1.weight f4 [8, 8]
0	0xbe2c7728	-0.1684233
1	0x3e6f7f46	0.23388395
2	0x3dd375a0	0.103251696
3	0x3e952463	0.29129323
4	0x3dcacc07	0.099021964
5	0x3ec5ed67	0.38657686
6	0x3f0c73be	0.5486411
7	0xbe8e7f50	-0.27831507
8	0x3f20f4ee	0.62873733
9	0xbe2f08f6	-0.17093262
10	0xbda0a91c	-0.07844755
11	0xbcfa4ade	-0.030553278
12	0x3f0f7aac	0.5604656
13	0xbe2ea07b	-0.17053406
14	0xbe9c594e	-0.30536884
15	0x3f182b18	0.59440756
16	0x3bb485de	0.0055091223
17	0x3f30c05c	0.6904352
18	0xbe94f873	-0.29095802
19	0x3f2f71f5	0.6853326
20	0x3e689644	0.22713572
21	0xbe13aef4	-0.14422208
22	0xbeb3a071	-0.35083345
23	0xbeaa4956	-0.33259076
24	0x3ef58006	0.47949237
25	0x3e37d89c	0.17953724
26	0x3e10b173	0.14130192
27	0x3e4973d6	0.19673094
28	0xbe9f46f2	-0.31108814
29	0xbe447acd	-0.1918747
30	0xbe982194	-0.29713118
31	0xbe6c52f0	-0.23078513
32	0x3ecd99a4	0.4015628
33	0xbeb3b560	-0.35099316
34	0x3e86883e	0.2627582
35	0xbebb9cd3	-0.36643085
36	0x3f4caf88	0.7995534
37	0xbdda0ef2	-0.10647382
38	0x3d103509	0.03520683
39	0x3f222123	0.6333181
40	0x3e8209f0	0.25398207
41	0xbe32201a	-0.17395058
42	0x3e5317b9	0.20614518
43	0x3e69e049	0.22839464
44	0x3d909597	0.07059782
45	0x3d4d6d20	0.050152898
46	0x3e658df2	0.22417429
47	0xbaa47900	-0.0012548268
48	0x3e926be2	0.28597933
49	0xbe3cd7bb	-0.1844167
50	0x3e08d6d8	0.13363206
51	0xbe84d25b	-0.25941738
52	0xbdf0951c	-0.1174719
53	0xbddbcf4d	-0.10732899
54	0x3cce03f3	0.025148368
55	0xbe67b4db	-0.22627585
56	0xbea8c75f	-0.32964608
57	0xbe44dce7	-0.19224893
58	0xbe2d9b32	-0.16953734
59	0xbe22c0c3	-0.15893845
60	0x3f242663	0.64121073
61	0xbe1f5259	-0.15558757
62	0xbe1d5e25	-0.15367945
63	0x3f156b77	0.58367103

l1.bias f4 [8]
0	0x3e23d210	0.15998101
1	0x3e2cb9be	0.1686773
2	0xbbdae351	-0.0066799303
3	0x3e09f9a9	0.13474144
4	0x3edaca5e	0.4273252
5	0xbe93a432	-0.2883621
6	0x3e26e712	0.16299084
7	0x3d8887d7	0.066665344

l2.weight f4 [8, 8]
0	0x3ef74bd4	0.4830004
1	0xbe148286	-0.14502916
2	0x3f45d2b8	0.77274656
3	0x3e993641	0.29924205
4	0x3d03886a	0.032112516
5	0x3e69c4be	0.22828957
6	0x3d953223	0.072849534
7	0x3d141033	0.03614826
8	0xbe190214	-0.14942199
9	0xbe8cbd44	-0.27488148
10	0x3e499f16	0.19689593
11	0xbdcc92a0	-0.09988904
12	0xbe90b200	-0.28260803
13	0x3e9fca5f	0.31209084
14	0x3da2be78	0.07946485
15	0xbe9c8314	-0.30568755
16	0x3e2d2606	0.16909036
17	0xbdc3b62d	-0.09556232
18	0xbe18d3cb	-0.14924543
19	0x3e3da8e2	0.18521455
20	0xbe618dd0	-0.22026753
21	0x3e22721f	0.15863846
22	0xbcfa1e75	-0.030532101
23	0xbdefc5c6	-0.11707644
24	0xbf0b5184	-0.5442126
25	0x3ef21b45	0.4728643
26	0xbe75d7f0	-0.24008155
27	0x3f0dbede	0.55369365
28	0x3eb17e5d	0.3466672
29	0xbe6eb44c	-0.23310965
30	0x3e827bfc	0.25485218
31	0x3ef51e37	0.47874615
32	0xbdf8f7e2	-0.12156655
33	0x3e4a6bbe	0.19767663
34	0xbe216982	-0.15762904
35	0xbe90858a	-0.28226882
36	0xbe8b78b8	-0.2724054
37	0xbea92a17	-0.33039925
38	0xbeac3a6c	-0.33638322
39	0x3cfdf380	0.030999899
40	0xbdd3bcbc	-0.103387326
41	0xbe8ee8c4	-0.2791196
42	0x3cabb630	0.020960897
43	0xbe87f584	-0.265545
44	0x3dbefd50	0.09325659
45	0xbcbe74e0	-0.02324909
46	0x3dee5d90	0.116389394
47	0xbe08f5de	-0.13375041
48	0x3e35cbae	0.17753479
49	0xbbbd6a80	-0.005780518
50	0xbe0211d0	-0.12702107
51	0xbd373e08	-0.044736892
52	0xbea2afc7	-0.31774732
53	0x3eab6749	0.33477238
54	0xbe6062ab	-0.21912639
55	0x3e80c2fb	0.25148758
56	0xbf301bc3	-0.6879236
57	0x3f3e8301	0.74418646
58	0xbd81276c	-0.06306347
59	0x39ee7e1c	0.00045488856
60	0x3f0968d7	0.536756
61	0xbe704701	-0.23464586
62	0x3e4ab4b8	0.19795501
63	0x3f35eaeb	0.7106158

l2.bias f4 [8]
0	0x3db82424	0.08991268
1	0xbe01f6e6	-0.1269184
2	0xbca59957	-0.02021472
3	0x3db27c4f	0.08715116
4	0xbca04f80	-0.019569159
5	0xbe72f5cc	-0.23726577
6	0xbe40346c	-0.18769997
7	0x3d5e7ba1	0.05431712

l3.weight f4 [2, 8]
0	0x3f37b02d	0.717532
1	0x3c2be180	0.010490775
2	0xbe9bcd0d	-0.3042988
3	0xbea2ce8c	-0.31798208
4	0x3e37173e	0.1787996
5	0xbcaa9cb0	-0.020826668
6	0x3eb450db	0.35217938
7	0xbe08f080	-0.13372993
8	0xbd10f9cd	-0.03539448
9	0xbcac48e0	-0.021030843
10	0x3e4baf63	0.19891123
11	0x3f0552cf	0.5207948
12	0x3d09f1f0	0.033677995
13	0xbd6c71f8	-0.057725877
14	0xbe1d3fbe	-0.15356347
15	0x3f312c7c	0.692085

l3.bias f4 [2]
0	0x3f7b8c36	0.9826082
1	0xbf75591a	-0.95839083
